beatrix-controller/int8-model_3.lite (tflite, 722920 bytes, 54 tensors)

sequential/dense/Tensordot/MatMul;StatefulPartitionedCall/sequential/dense/Tensordot/MatMul i1 [12, 1280] scale=0.0076585608 zero_point=0
0.0076585608 -0.053609926 -0.0076585608 0.0076585608 0.0076585608 0.061268486 -0.06892705 -0.0153171215
-0.045951366 0.061268486 0.053609926 0.022975683 0.045951366 0.0076585608 -0.0076585608 0.022975683
0.0 -0.038292803 -0.06892705 -0.030634243 0.061268486 -0.0076585608 0.045951366 -0.030634243
-0.030634243 0.0 -0.061268486 -0.06892705 0.045951366 -0.061268486 -0.053609926 -0.0076585608
-0.06892705 -0.053609926 0.0076585608 0.045951366 0.053609926 -0.053609926 -0.076585606 0.0
0.030634243 0.038292803 -0.030634243 0.038292803 0.0153171215 -0.038292803 0.053609926 -0.030634243
0.0153171215 0.0076585608 -0.030634243 -0.045951366 -0.022975683 0.045951366 0.045951366 0.030634243
-0.061268486 -0.022975683 -0.0153171215 -0.06892705 -0.053609926 0.0076585608 -0.038292803 -0.022975683
0.045951366 -0.0076585608 -0.022975683 -0.061268486 -0.045951366 -0.038292803 0.0 -0.053609926
0.053609926 -0.0076585608 -0.038292803 0.0 -0.030634243 -0.038292803 -0.053609926 -0.045951366
0.038292803 0.053609926 0.061268486 0.022975683 0.0153171215 0.022975683 -0.0153171215 0.0153171215
0.045951366 -0.030634243 -0.030634243 -0.038292803 0.0076585608 -0.022975683 0.061268486 -0.038292803
-0.022975683 0.0076585608 0.0 -0.0076585608 0.045951366 0.053609926 -0.030634243 -0.053609926
-0.0153171215 0.030634243 -0.053609926 0.061268486 0.030634243 -0.061268486 0.0076585608 -0.061268486
0.053609926 0.022975683 -0.053609926 -0.053609926 -0.030634243 0.030634243 0.0 0.030634243
-0.0076585608 0.0 0.038292803 -0.030634243 -0.061268486 -0.0153171215 0.045951366 -0.030634243
-0.06892705 -0.053609926 -0.061268486 -0.022975683 0.022975683 -0.0076585608 -0.030634243 0.061268486
0.0153171215 0.022975683 -0.0153171215 0.038292803 -0.022975683 0.022975683 0.0 0.045951366
0.0076585608 0.053609926 0.06892705 0.0153171215 0.0 0.030634243 0.0 -0.038292803
-0.053609926 -0.061268486 -0.022975683 0.061268486 -0.030634243 0.022975683 0.0 0.0
0.0 0.030634243 0.053609926 -0.0153171215 -0.0153171215 -0.022975683 -0.061268486 0.038292803
-0.06892705 -0.022975683 -0.0153171215 -0.030634243 -0.0076585608 -0.053609926 -0.022975683 0.053609926
-0.061268486 0.0076585608 -0.038292803 -0.053609926 -0.030634243 -0.030634243 -0.038292803 0.0153171215
-0.053609926 -0.06892705 -0.053609926 0.0153171215 0.038292803 0.038292803 0.030634243 0.0153171215
-0.030634243 -0.076585606 -0.0076585608 -0.0153171215 0.0 0.038292803 0.061268486 -0.030634243
0.061268486 -0.0153171215 -0.022975683 -0.0153171215 0.038292803 0.030634243 -0.0153171215 -0.053609926
-0.022975683 0.045951366 -0.022975683 0.030634243 -0.038292803 0.045951366 0.0153171215 0.0153171215
0.022975683 0.045951366 -0.022975683 0.030634243 0.0 0.022975683 0.030634243 -0.030634243
-0.030634243 0.045951366 -0.045951366 0.061268486 -0.038292803 0.0076585608 -0.0153171215 -0.038292803
-0.038292803 -0.045951366 -0.038292803 -0.0153171215 0.06892705 -0.053609926 0.022975683 0.0153171215
0.0153171215 -0.0076585608 -0.038292803 0.022975683 -0.06892705 -0.061268486 -0.061268486 0.030634243
-0.061268486 -0.053609926 -0.045951366 -0.06892705 0.038292803 -0.0153171215 -0.030634243 0.038292803
00000000: 01f9 ff01 0108 f7fe fa08 0703 0601 ff03
00000010: 00fb f7fc 08ff 06fc fc00 f8f7 06f8 f9ff
00000020: f7f9 0106 07f9 f600 0405 fc05 02fb 07fc
00000030: 0201 fcfa fd06 0604 f8fd fef7 f901 fbfd
00000040: 06ff fdf8 fafb 00f9 07ff fb00 fcfb f9fa
00000050: 0507 0803 0203 fe02 06fc fcfb 01fd 08fb
00000060: fd01 00ff 0607 fcf9 fe04 f908 04f8 01f8
00000070: 0703 f9f9 fc04 0004 ff00 05fc f8fe 06fc
00000080: f7f9 f8fd 03ff fc08 0203 fe05 fd03 0006
00000090: 0107 0902 0004 00fb f9f8 fd08 fc03 0000
000000a0: 0004 07fe fefd f805 f7fd fefc fff9 fd07
000000b0: f801 fbf9 fcfc fb02 f9f7 f902 0505 0402
000000c0: fcf6 fffe 0005 08fc 08fe fdfe 0504 fef9
000000d0: fd06 fd04 fb06 0202 0306 fd04 0003 04fc
000000e0: fc06 fa08 fb01 fefb fbfa fbfe 09f9 0302
000000f0: 02ff fb03 f7f8 f804 f8f9 faf7 05fe fc05

sequential/dense_1/MatMul;StatefulPartitionedCall/sequential/dense_1/MatMul i1 [18, 108] scale=0.0090329405 zero_point=0
-0.08129647 -0.16259293 0.26195526 -0.19872469 -0.0090329405 -0.08129647 0.09936234 0.18065882
-0.13549411 0.018065881 -0.036131762 0.0090329405 -0.09032941 -0.027098821 0.08129647 -0.09936234
-0.11742823 0.17162587 -0.018065881 0.16259293 0.13549411 -0.09032941 -0.17162587 -0.16259293
0.036131762 0.21679057 0.036131762 0.018065881 -0.18969175 -0.18969175 0.09936234 -0.19872469
0.08129647 -0.2258235 -0.24388939 0.018065881 0.18065882 0.20775764 0.027098821 0.08129647
-0.0090329405 0.13549411 -0.18969175 -0.16259293 0.23485646 -0.045164704 -0.108395286 -0.19872469
0.18065882 0.0090329405 -0.0090329405 0.0090329405 0.14452705 0.17162587 -0.15355998 0.12646116
0.20775764 -0.31615293 0.0090329405 0.14452705 0.08129647 0.18969175 0.054197643 0.21679057
0.027098821 0.0 0.045164704 0.15355998 0.34325173 -0.30711997 -0.09936234 0.045164704
0.027098821 -0.13549411 -0.036131762 0.14452705 0.072263524 0.16259293 0.09936234 0.17162587
0.27098823 0.12646116 0.2258235 -0.09936234 0.14452705 0.0090329405 -0.018065881 -0.19872469
-0.20775764 -0.14452705 0.11742823 0.027098821 0.17162587 -0.30711997 -0.09032941 -0.08129647
0.17162587 0.12646116 -0.072263524 0.17162587 0.16259293 -0.14452705 -0.018065881 -0.16259293
0.18065882 -0.18969175 0.08129647 -0.17162587 0.17162587 -0.18065882 0.17162587 -0.16259293
-0.12646116 -0.108395286 -0.13549411 -0.19872469 -0.39744937 -0.072263524 -0.8219976 -0.11742823
0.045164704 -0.08129647 -0.08129647 -0.027098821 0.16259293 0.15355998 -0.12646116 0.15355998
0.14452705 0.0 -0.451647 0.09936234 0.09936234 -0.20775764 0.21679057 0.18969175
0.054197643 -0.18969175 -0.20775764 -0.027098821 -0.31615293 -0.18065882 -0.61423993 0.036131762
-0.027098821 -0.15355998 0.108395286 -0.17162587 -0.13549411 0.072263524 0.14452705 -0.17162587
0.13549411 0.18969175 -0.35228467 0.09936234 0.13549411 -0.036131762 0.06323058 -0.17162587
-0.036131762 -0.21679057 -0.06323058 -0.045164704 -0.16259293 0.15355998 -0.43358114 -0.14452705
0.06323058 -0.027098821 0.0 0.06323058 0.12646116 -0.16259293 -0.17162587 0.12646116
-0.018065881 0.17162587 -0.41551527 -0.027098821 -0.045164704 -0.19872469 0.23485646 0.20775764
0.12646116 -0.027098821 0.072263524 0.18065882 0.08129647 0.045164704 -0.036131762 -0.06323058
-0.018065881 -0.054197643 0.17162587 -0.06323058 -0.072263524 0.09936234 0.0 0.018065881
-0.15355998 0.054197643 0.0090329405 -0.13549411 0.0090329405 -0.027098821 -0.0090329405 -0.15355998
-0.108395286 -0.11742823 -0.09936234 -0.14452705 -0.054197643 -0.072263524 -0.34325173 0.15355998
-0.0090329405 -0.18065882 0.32518587 -0.13549411 -0.18969175 -0.09032941 -0.072263524 -0.20775764
-0.108395286 -0.09032941 -0.15355998 0.0090329405 0.108395286 0.17162587 -0.61423993 -0.18065882
0.20775764 -0.06323058 -0.15355998 0.09032941 0.28002116 -0.018065881 -0.045164704 0.14452705
0.13549411 -0.072263524 0.24388939 0.0090329405 -0.17162587 0.0090329405 0.108395286 0.17162587
0.0090329405 0.027098821 -0.18969175 -0.027098821 0.19872469 0.018065881 0.108395286 0.08129647
00000000: f7ee 1dea fff7 0b14 f102 fc01 f6fd 09f5
00000010: f313 fe12 0ff6 edee 0418 0402 ebeb 0bea
00000020: 09e7 e502 1417 0309 ff0f ebee 1afb f4ea
00000030: 1401 ff01 1013 ef0e 17dd 0110 0915 0618
00000040: 0300 0511 26de f505 03f1 fc10 0812 0b13
00000050: 1e0e 19f5 1001 feea e9f0 0d03 13de f6f7
00000060: 130e f813 12f0 feee 14eb 09ed 13ec 13ee
00000070: f2f4 f1ea d4f8 a5f3 05f7 f7fd 1211 f211
00000080: 1000 ce0b 0be9 1815 06eb e9fd ddec bc04
00000090: fdef 0ced f108 10ed 0f15 d90b 0ffc 07ed
000000a0: fce8 f9fb ee11 d0f0 07fd 0007 0eee ed0e
000000b0: fe13 d2fd fbea 1a17 0efd 0814 0905 fcf9
000000c0: fefa 13f9 f80b 0002 ef06 01f1 01fd ffef
000000d0: f4f3 f5f0 faf8 da11 ffec 24f1 ebf6 f8e9
000000e0: f4f6 ef01 0c13 bcec 17f9 ef0a 1ffe fb10
000000f0: 0ff8 1b01 ed01 0c13 0103 ebfd 1602 0c09

sequential/model/Conv1/Conv2D;StatefulPartitionedCall/sequential/model/Conv1/Conv2D i1 [16, 3, 3, 1]
-85 -110 -30 67 -37 17 32 127
19 105 -95 -10 -127 104 23 14
-2 -13 -24 -2 -48 36 95 127
-12 -94 -79 120 126 58 2 -22
-15 -101 -127 -44 26 -57 1 26
-127 2 15 -84 -12 -61 28 -1
-127 33 3 -85 26 0 -17 79
127 -51 55 -16 -36 -52 -88 38
28 -16 127 70 -7 31 3 -24
-21 -30 53 -54 -87 127 -26 -61
96 -22 51 -10 -15 127 -12 -7
88 -7 24 87 12 -37 -127 -29
12 40 18 7 -19 10 65 -93
35 -85 127 -46 -41 49 -10 -127
114 6 -78 79 5 79 22 -15
127 105 -10 72 104 36 -30 -28
48 44 98 -127 -16 -70 81 -85
-27 19 -127 -123 17 -22 -73 -7
00000000: ab92 e243 db11 207f 1369 a1f6 8168 170e
00000010: fef3 e8fe d024 5f7f f4a2 b178 7e3a 02ea
00000020: f19b 81d4 1ac7 011a 8102 0fac f4c3 1cff
00000030: 8121 03ab 1a00 ef4f 7fcd 37f0 dccc a826
00000040: 1cf0 7f46 f91f 03e8 ebe2 35ca a97f e6c3
00000050: 60ea 33f6 f17f f4f9 58f9 1857 0cdb 81e3
00000060: 0c28 1207 ed0a 41a3 23ab 7fd2 d731 f681
00000070: 7206 b24f 054f 16f1 7f69 f648 6824 e2e4
00000080: 302c 6281 f0ba 51ab e513 8185 11ea b7f9

sequential/model/expanded_conv_project/Conv2D;StatefulPartitionedCall/sequential/model/expanded_conv_project/Conv2D i1 [8, 1, 1, 16]
-13 -14 -19 -66 -26 -35 19 -18
38 8 -32 -6 111 127 -20 -106
127 -60 -42 15 -46 72 -69 -44
-40 84 -34 -52 -9 4 -64 -18
-36 -96 41 41 47 -55 -77 -21
30 -88 26 -127 44 -22 -76 22
37 13 15 16 -12 69 -52 -20
127 45 11 23 4 -13 11 23
-94 -37 -26 -127 -9 39 53 -117
31 -18 -47 -38 -120 31 -40 -24
88 51 70 -27 46 -48 -127 -123
-18 -77 66 49 -58 50 65 -45
107 40 -126 -77 29 -74 5 -91
-41 20 -127 96 92 -89 7 73
-127 -3 97 -28 -64 4 -2 -61
-51 62 85 -32 62 -26 30 29
00000000: f3f2 edbe e6dd 13ee 2608 e0fa 6f7f ec96
00000010: 7fc4 d60f d248 bbd4 d854 decc f704 c0ee
00000020: dca0 2929 2fc9 b3eb 1ea8 1a81 2cea b416
00000030: 250d 0f10 f445 ccec 7f2d 0b17 04f3 0b17
00000040: a2db e681 f727 358b 1fee d1da 881f d8e8
00000050: 5833 46e5 2ed0 8185 eeb3 4231 c632 41d3
00000060: 6b28 82b3 1db6 05a5 d714 8160 5ca7 0749
00000070: 81fd 61e4 c004 fec3 cd3e 55e0 3ee6 1e1d

sequential/model/block_1_expand/Conv2D;StatefulPartitionedCall/sequential/model/block_1_expand/Conv2D i1 [48, 1, 1, 8]
-40 29 2 -16 -80 -36 -127 32
84 -77 -56 -53 127 -88 96 25
-106 124 -50 -127 52 -21 -27 43
52 23 96 8 98 122 127 -13
-72 -127 66 8 -57 -111 4 -35
127 -24 68 65 -70 -9 1 -23
25 35 127 -27 44 -36 -43 29
28 7 -127 -35 -41 98 98 -75
-2 127 -35 12 64 104 47 55
-7 127 -65 90 15 -114 43 121
4 -127 -4 -28 -78 -122 -57 -83
-127 -80 105 50 -8 -64 100 64
-27 44 -127 81 34 -55 -72 98
90 -127 92 79 8 33 37 -59
-28 95 -38 -127 -28 -111 -27 -62
41 113 32 -16 36 -65 97 -127
-114 -127 -60 92 -54 23 -19 78
-26 -113 -127 86 -63 75 -51 75
-97 -75 -50 92 -9 72 -4 127
62 -124 102 -127 12 -67 32 -33
-3 73 32 13 42 127 75 -11
27 113 46 -33 39 -67 93 -127
22 12 103 20 -10 127 31 -36
-101 -67 36 -73 92 100 -62 -127
-97 -91 36 -86 108 106 -45 -127
127 9 -59 -14 14 33 -62 -8
-127 -36 -125 -24 -52 -29 20 -2
79 33 -2 -59 -127 -25 87 90
-127 -84 6 50 -77 -103 6 1
123 102 43 -127 28 11 -65 -95
-88 -68 40 -70 75 89 -52 -127
48 44 -5 127 5 -72 8 9
00000000: d81d 02f0 b0dc 8120 54b3 c8cb 7fa8 6019
00000010: 967c ce81 34eb e52b 3417 6008 627a 7ff3
00000020: b881 4208 c791 04dd 7fe8 4441 baf7 01e9
00000030: 1923 7fe5 2cdc d51d 1c07 81dd d762 62b5
00000040: fe7f dd0c 4068 2f37 f97f bf5a 0f8e 2b79
00000050: 0481 fce4 b286 c7ad 81b0 6932 f8c0 6440
00000060: e52c 8151 22c9 b862 5a81 5c4f 0821 25c5
00000070: e45f da81 e491 e5c2 2971 20f0 24bf 6181
00000080: 8e81 c45c ca17 ed4e e68f 8156 c14b cd4b
00000090: 9fb5 ce5c f748 fc7f 3e84 6681 0cbd 20df
000000a0: fd49 200d 2a7f 4bf5 1b71 2edf 27bd 5d81
000000b0: 160c 6714 f67f 1fdc 9bbd 24b7 5c64 c281
000000c0: 9fa5 24aa 6c6a d381 7f09 c5f2 0e21 c2f8
000000d0: 81dc 83e8 cce3 14fe 4f21 fec5 81e7 575a
000000e0: 81ac 0632 b399 0601 7b66 2b81 1c0b bfa1
000000f0: a8bc 28ba 4b59 cc81 302c fb7f 05b8 0809

sequential/model/block_1_project/Conv2D;StatefulPartitionedCall/sequential/model/block_1_project/Conv2D i1 [8, 1, 1, 48]
-45 -3 32 12 -33 -14 10 9
-42 -6 -64 -56 -25 -64 -11 -31
46 -40 39 42 -16 32 -38 14
1 -39 55 -14 -4 -18 17 11
82 35 37 -127 18 -1 -17 -34
4 -17 44 47 36 5 28 2
1 39 65 -27 -13 44 -50 -30
2 24 -16 -92 11 89 -17 58
-19 20 -25 -55 11 -79 -27 23
-72 -12 -2 -114 -26 -17 32 -53
50 79 -41 4 127 -31 2 49
-30 39 -82 -30 115 -20 -33 -26
-4 -21 -62 14 -3 44 26 3
-8 42 -3 27 64 -91 17 -61
35 -88 23 34 -24 52 -5 25
-17 60 -23 -69 17 4 19 -70
-46 -87 35 -30 106 21 -11 -58
-1 29 78 28 127 16 19 25
-5 25 -66 41 13 -37 -71 -102
11 -23 -36 0 4 26 33 77
-6 14 -37 25 5 -98 29 -58
-73 -9 127 -13 -44 2 -66 18
0 -80 11 -13 -21 -40 -23 102
-45 -37 -1 18 39 3 -39 42
-27 -46 -6 8 30 -29 -12 -8
27 -30 57 -78 6 29 8 10
-16 -24 11 -14 -4 -52 4 -20
17 -10 40 48 32 21 -15 27
-10 -2 2 -1 -68 83 35 -25
30 -20 -20 -24 -76 11 127 10
46 -21 3 14 25 -43 34 -127
25 -30 -11 119 -81 66 22 -67
00000000: d3fd 200c dff2 0a09 d6fa c0c8 e7c0 f5e1
00000010: 2ed8 272a f020 da0e 01d9 37f2 fcee 110b
00000020: 5223 2581 12ff efde 04ef 2c2f 2405 1c02
00000030: 0127 41e5 f32c cee2 0218 f0a4 0b59 ef3a
00000040: ed14 e7c9 0bb1 e517 b8f4 fe8e e6ef 20cb
00000050: 324f d704 7fe1 0231 e227 aee2 73ec dfe6
00000060: fceb c20e fd2c 1a03 f82a fd1b 40a5 11c3
00000070: 23a8 1722 e834 fb19 ef3c e9bb 1104 13ba
00000080: d2a9 23e2 6a15 f5c6 ff1d 4e1c 7f10 1319
00000090: fb19 be29 0ddb b99a 0be9 dc00 041a 214d
000000a0: fa0e db19 059e 1dc6 b7f7 7ff3 d402 be12
000000b0: 00b0 0bf3 ebd8 e966 d3db ff12 2703 d92a
000000c0: e5d2 fa08 1ee3 f4f8 1be2 39b2 061d 080a
000000d0: f0e8 0bf2 fccc 04ec 11f6 2830 2015 f11b
000000e0: f6fe 02ff bc53 23e7 1eec ece8 b40b 7f0a
000000f0: 2eeb 030e 19d5 2281 19e2 f577 af42 16bd

sequential/model/block_2_expand/Conv2D;StatefulPartitionedCall/sequential/model/block_2_expand/Conv2D i1 [48, 1, 1, 8]
63 127 -79 -90 13 86 16 68
59 -75 46 -127 -57 72 -85 -43
-29 127 117 49 109 4 51 9
106 43 -94 63 -6 -103 -127 -35
-43 32 14 -68 -37 114 127 50
23 76 -127 -77 45 88 33 -30
-9 127 64 58 76 11 17 -92
127 -19 -34 28 22 4 107 17
51 127 64 92 113 80 95 -82
50 112 -127 -90 12 97 6 69
-68 -43 22 -49 -4 -30 -47 127
16 -110 -127 -16 21 -13 38 -9
-27 -111 -123 -30 -127 30 -66 46
-9 9 -101 101 -127 -25 1 -17
-64 -43 -127 -8 37 -2 -12 -59
22 -100 -127 15 -101 -27 -30 -13
127 -67 -19 67 -84 25 32 100
-26 115 127 -26 -49 -10 -28 -21
9 -127 46 70 -3 -64 50 -84
127 -46 -57 38 -99 7 41 103
-29 -127 80 73 -15 -87 0 -74
-6 -50 -11 -33 127 -6 44 21
-127 26 -79 49 48 54 -93 -108
-93 -50 65 -4 -107 127 124 -50
-30 58 -5 -45 -41 124 127 1
-52 -110 -127 -61 -53 -16 -26 -43
-12 65 -16 127 -93 36 -54 -1
16 -127 33 76 15 -54 6 -122
19 127 59 45 115 -21 24 -64
107 29 -38 -10 81 -127 -108 37
24 -7 32 -127 18 -23 17 -23
48 -40 3 64 -13 30 12 127
00000000: 3f7f b1a6 0d56 1044 3bb5 2e81 c748 abd5
00000010: e37f 7531 6d04 3309 6a2b a23f fa99 81dd
00000020: d520 0ebc db72 7f32 174c 81b3 2d58 21e2
00000030: f77f 403a 4c0b 11a4 7fed de1c 1604 6b11
00000040: 337f 405c 7150 5fae 3270 81a6 0c61 0645
00000050: bcd5 16cf fce2 d17f 1092 81f0 15f3 26f7
00000060: e591 85e2 811e be2e f709 9b65 81e7 01ef
00000070: c0d5 81f8 25fe f4c5 169c 810f 9be5 e2f3
00000080: 7fbd ed43 ac19 2064 e673 7fe6 cff6 e4eb
00000090: 0981 2e46 fdc0 32ac 7fd2 c726 9d07 2967
000000a0: e381 5049 f1a9 00b6 face f5df 7ffa 2c15
000000b0: 811a b131 3036 a394 a3ce 41fc 957f 7cce
000000c0: e23a fbd3 d77c 7f01 cc92 81c3 cbf0 e6d5
000000d0: f441 f07f a324 caff 1081 214c 0fca 0686
000000e0: 137f 3b2d 73eb 18c0 6b1d daf6 5181 9425
000000f0: 18f9 2081 12e9 11e9 30d8 0340 f31e 0c7f

sequential/model/block_2_project/Conv2D;StatefulPartitionedCall/sequential/model/block_2_project/Conv2D i1 [8, 1, 1, 48]
-42 -48 -19 -65 1 -13 87 83
-97 -85 -36 7 -54 -5 -61 34
-81 11 13 127 57 -26 13 93
69 73 26 3 -89 -55 -78 -56
-50 97 32 -47 28 -31 91 -6
25 6 1 -104 39 -33 -32 -83
-14 53 -19 -26 -71 60 -20 -48
-34 71 -19 18 56 45 -49 -5
-20 -120 77 -50 127 9 -62 23
58 -2 -82 63 39 -14 68 34
-32 -18 2 -12 2 107 -15 -26
65 42 -7 14 105 15 -31 57
-24 -34 112 4 83 -42 -12 22
-32 -1 -12 45 8 -42 -46 -127
-51 -97 -23 16 -95 21 -39 -34
-48 17 -2 -45 -40 6 -32 -12
-1 -5 26 -5 26 -29 -49 8
35 -31 30 -46 -43 -43 -61 -49
50 16 64 13 18 -33 34 72
-54 -26 44 -24 -67 59 -17 51
67 30 -35 32 -108 -68 127 -2
7 3 -58 -33 -51 65 117 -64
7 -113 -23 44 -11 -79 -13 73
-76 -57 62 -2 -96 -72 58 -8
18 -18 72 -28 5 -9 -4 -3
-59 -6 -24 7 45 -72 40 -98
44 45 -9 -34 11 33 18 9
0 3 58 -16 26 23 -127 -13
-27 -21 5 16 49 -3 36 1
-39 -11 -70 28 -16 -98 2 20
25 -48 60 30 31 18 24 1
-76 -8 -47 29 31 8 13 -44
00000000: d6d0 edbf 01f3 5753 9fab dc07 cafb c322
00000010: af0b 0d7f 39e6 0d5d 4549 1a03 a7c9 b2c8
00000020: ce61 20d1 1ce1 5bfa 1906 0198 27df e0ad
00000030: f235 ede6 b93c ecd0 de47 ed12 382d cffb
00000040: ec88 4dce 7f09 c217 3afe ae3f 27f2 4422
00000050: e0ee 02f4 026b f1e6 412a f90e 690f e139
00000060: e8de 7004 53d6 f416 e0ff f42d 08d6 d281
00000070: cd9f e910 a115 d9de d011 fed3 d806 e0f4
00000080: fffb 1afb 1ae3 cf08 23e1 1ed2 d5d5 c3cf
00000090: 3210 400d 12df 2248 cae6 2ce8 bd3b ef33
000000a0: 431e dd20 94bc 7ffe 0703 c6df cd41 75c0
000000b0: 078f e92c f5b1 f349 b4c7 3efe a0b8 3af8
000000c0: 12ee 48e4 05f7 fcfd c5fa e807 2db8 289e
000000d0: 2c2d f7de 0b21 1209 0003 3af0 1a17 81f3
000000e0: e5eb 0510 31fd 2401 d9f5 ba1c f09e 0214
000000f0: 19d0 3c1e 1f12 1801 b4f8 d11d 1f08 0dd4

sequential/model/block_3_expand/Conv2D;StatefulPartitionedCall/sequential/model/block_3_expand/Conv2D i1 [48, 1, 1, 8]
71 31 127 -37 65 105 -77 -56
10 -84 -127 5 51 25 30 2
-127 -6 -48 -27 55 26 -72 -41
42 71 127 -78 -10 -109 -7 -15
-127 22 -51 -25 45 11 -41 -59
-99 23 -56 -10 9 38 -81 -127
-37 -127 -119 42 99 13 7 46
-62 -127 -95 -78 -70 -67 19 86
85 31 -8 -4 94 -78 -127 12
-37 53 -53 89 -60 -40 127 -31
-24 127 37 64 124 -22 -11 56
-80 -34 -24 -10 -85 103 127 -5
67 34 -127 36 -9 -34 -66 -14
62 -31 -69 9 13 -127 -29 -23
8 -77 77 11 127 -117 -65 20
-40 -42 -4 127 63 82 -74 27
113 28 -34 18 77 -107 -127 -25
61 127 54 73 46 64 26 -87
34 -11 3 -2 127 3 26 -12
11 127 33 14 -118 19 25 -32
-44 19 66 -127 20 35 -17 106
-37 74 41 -127 30 47 -12 115
-71 -68 -97 18 -127 121 112 -25
99 37 -127 19 15 -48 -72 -18
-53 43 7 5 -21 78 -127 101
-99 -55 -127 10 -56 -67 66 96
47 -10 -38 -33 108 -14 127 -42
127 -70 25 92 1 31 -20 95
44 57 53 -11 127 -56 52 -30
-16 -12 -25 -44 -68 15 127 -32
42 -127 -53 -70 -106 -2 10 -54
10 26 -7 -12 -127 6 -26 -12
00000000: 471f 7fdb 4169 b3c8 0aac 8105 3319 1e02
00000010: 81fa d0e5 371a b8d7 2a47 7fb2 f693 f9f1
00000020: 8116 cde7 2d0b d7c5 9d17 c8f6 0926 af81
00000030: db81 892a 630d 072e c281 a1b2 babd 1356
00000040: 551f f8fc 5eb2 810c db35 cb59 c4d8 7fe1
00000050: e87f 2540 7cea f538 b0de e8f6 ab67 7ffb
00000060: 4322 8124 f7de bef2 3ee1 bb09 0d81 e3e9
00000070: 08b3 4d0b 7f8b bf14 d8d6 fc7f 3f52 b61b
00000080: 711c de12 4d95 81e7 3d7f 3649 2e40 1aa9
00000090: 22f5 03fe 7f03 1af4 0b7f 210e 8a13 19e0
000000a0: d413 4281 1423 ef6a db4a 2981 1e2f f473
000000b0: b9bc 9f12 8179 70e7 6325 8113 0fd0 b8ee
000000c0: cb2b 0705 eb4e 8165 9dc9 810a c8bd 4260
000000d0: 2ff6 dadf 6cf2 7fd6 7fba 195c 011f ec5f
000000e0: 2c39 35f5 7fc8 34e2 f0f4 e7d4 bc0f 7fe0
000000f0: 2a81 cbba 96fe 0aca 0a1a f9f4 8106 e6f4

sequential/model/block_3_project/Conv2D;StatefulPartitionedCall/sequential/model/block_3_project/Conv2D i1 [16, 1, 1, 48]
25 39 19 -33 68 66 -41 57
-15 113 4 45 -36 36 -15 44
33 80 42 -62 -69 74 -8 50
57 45 38 52 -47 -48 -8 84
-27 11 -69 51 49 -127 -33 15
13 -32 61 -7 -8 -55 -60 -17
-51 2 -80 -44 10 90 -57 19
-11 -34 -44 33 59 -17 -28 -25
-28 -33 -5 20 -66 45 -104 -46
-52 -39 48 68 -25 -29 42 -42
12 -59 -34 53 13 -59 127 -36
-23 29 -46 -15 33 52 31 19
3 4 59 -34 -18 -80 18 24
101 76 -66 13 110 -49 127 82
-70 -22 -31 31 83 -80 -33 -97
12 -37 36 -70 40 44 -43 14
33 -27 60 42 -66 11 1 -29
32 29 66 -16 21 -86 95 -56
40 3 -23 -29 33 112 17 -18
43 -49 23 -25 -52 8 11 42
-44 -68 37 -124 -10 -1 -27 -17
-41 92 127 64 -12 -42 27 41
61 -30 96 35 -44 -57 1 40
27 15 -16 0 24 20 -10 -23
101 -9 6 -50 90 86 51 12
70 -18 -108 31 43 -21 16 -16
-101 -125 -27 -99 -22 24 -40 -34
-86 127 -105 122 -59 -56 29 83
40 -52 16 -33 -8 13 -28 29
-52 -10 -5 53 -51 107 -32 -56
0 -4 -55 6 -13 54 18 -26
63 53 39 89 52 -22 32 -3
00000000: 1927 13df 4442 d739 f171 042d dc24 f12c
00000010: 2150 2ac2 bb4a f832 392d 2634 d1d0 f854
00000020: e50b bb33 3181 df0f 0de0 3df9 f8c9 c4ef
00000030: cd02 b0d4 0a5a c713 f5de d421 3bef e4e7
00000040: e4df fb14 be2d 98d2 ccd9 3044 e7e3 2ad6
00000050: 0cc5 de35 0dc5 7fdc e91d d2f1 2134 1f13
00000060: 0304 3bde eeb0 1218 654c be0d 6ecf 7f52
00000070: baea e11f 53b0 df9f 0cdb 24ba 282c d50e
00000080: 21e5 3c2a be0b 01e3 201d 42f0 15aa 5fc8
00000090: 2803 e9e3 2170 11ee 2bcf 17e7 cc08 0b2a
000000a0: d4bc 2584 f6ff e5ef d75c 7f40 f4d6 1b29
000000b0: 3de2 6023 d4c7 0128 1b0f f000 1814 f6e9
000000c0: 65f7 06ce 5a56 330c 46ee 941f 2beb 10f0
000000d0: 9b83 e59d ea18 d8de aa7f 977a c5c8 1d53
000000e0: 28cc 10df f80d e41d ccf6 fb35 cd6b e0c8
000000f0: 00fc c906 f336 12e6 3f35 2759 34ea 20fd

sequential/model/block_4_expand/Conv2D;StatefulPartitionedCall/sequential/model/block_4_expand/Conv2D i1 [96, 1, 1, 16]
42 6 2 56 -127 -22 95 49
59 85 -24 40 15 1 34 81
-21 29 -90 3 127 100 -3 0
-28 17 -58 33 -52 85 -53 -38
-40 62 78 -3 63 86 7 36
38 -7 40 -18 54 -127 -8 11
127 -33 23 3 34 32 -13 14
38 36 -60 -23 -41 51 -30 55
-80 -19 7 38 -116 -9 -88 -30
-9 32 -10 -56 -21 34 -42 127
-94 15 33 13 127 31 6 8
-48 34 -26 13 -67 54 -96 -37
-127 25 -38 29 -10 -71 72 16
7 -31 -52 36 11 -1 -42 12
-1 105 55 -95 68 52 127 8
47 1 -3 45 89 26 -30 2
-35 -26 -72 55 -56 87 -47 -73
27 -41 88 42 127 48 -102 9
-25 -127 -18 81 -41 -63 -13 58
51 46 8 66 -76 14 -8 -35
-39 -51 -109 55 -126 127 61 -89
12 -74 66 -43 38 111 -84 87
-43 -111 -38 30 -10 93 35 -7
19 13 44 -96 16 116 -119 127
-30 -95 -81 102 -101 -127 18 65
78 67 -35 101 -5 -64 -24 -8
-64 -23 -33 -4 -14 1 30 16
-17 127 -10 -20 38 32 15 -12
-120 -27 -52 -51 -23 94 -23 -106
127 -67 74 -2 95 -59 -93 -91
4 -127 96 -56 -56 -38 6 58
17 -50 -92 -38 85 -42 -27 -49
00000000: 2a06 0238 81ea 5f31 3b55 e828 0f01 2251
00000010: eb1d a603 7f64 fd00 e411 c621 cc55 cbda
00000020: d83e 4efd 3f56 0724 26f9 28ee 3681 f80b
00000030: 7fdf 1703 2220 f30e 2624 c4e9 d733 e237
00000040: b0ed 0726 8cf7 a8e2 f720 f6c8 eb22 d67f
00000050: a20f 210d 7f1f 0608 d022 e60d bd36 a0db
00000060: 8119 da1d f6b9 4810 07e1 cc24 0bff d60c
00000070: ff69 37a1 4434 7f08 2f01 fd2d 591a e202
00000080: dde6 b837 c857 d1b7 1bd7 582a 7f30 9a09
00000090: e781 ee51 d7c1 f33a 332e 0842 b40e f8dd
000000a0: d9cd 9337 827f 3da7 0cb6 42d5 266f ac57
000000b0: d591 da1e f65d 23f9 130d 2ca0 1074 897f
000000c0: e2a1 af66 9b81 1241 4e43 dd65 fbc0 e8f8
000000d0: c0e9 dffc f201 1e10 ef7f f6ec 2620 0ff4
000000e0: 88e5 cccd e95e e996 7fbd 4afe 5fc5 a3a5
000000f0: 0481 60c8 c8da 063a 11ce a4da 55d6 e5cf

sequential/model/block_4_project/Conv2D;StatefulPartitionedCall/sequential/model/block_4_project/Conv2D i1 [16, 1, 1, 96]
20 25 11 18 -16 -71 -12 -5
-24 -73 11 -5 55 -67 53 31
-87 -30 36 6 79 21 -68 11
-8 64 127 70 14 73 57 -39
5 2 9 -23 30 25 -9 -8
116 17 25 -20 -8 -8 4 -42
26 -37 95 -4 -70 -4 38 33
-8 -41 7 20 -11 35 -64 -13
12 -6 65 31 3 -22 22 27
5 37 8 32 57 -33 47 21
-13 47 35 32 -56 10 -8 68
17 6 -88 -21 20 12 106 70
21 40 -49 -16 -2 -48 94 -76
-63 -39 -64 -47 -3 -43 -10 -54
-31 -25 -32 -16 -15 -91 113 -34
-3 17 2 61 -52 8 -37 16
-32 23 14 6 -22 54 -58 84
29 12 0 -46 56 -59 -8 35
-84 -2 50 -106 -41 42 63 60
33 24 -66 14 -45 0 -14 -16
33 28 103 8 -43 -127 8 4
22 66 -22 34 -54 -30 104 -30
41 -12 54 -60 -28 -62 -19 14
-20 -45 32 0 68 -58 -34 55
8 -18 18 -9 64 44 -53 24
-56 44 15 -26 34 -8 20 30
29 -27 -127 -10 -17 -42 -12 22
1 -17 -44 16 -37 -19 -18 69
-16 -37 -3 15 -44 25 -23 -19
71 13 4 41 6 55 5 -7
-84 5 -18 17 -24 48 13 -60
35 23 42 33 -25 -11 -21 55
00000000: 1419 0b12 f0b9 f4fb e8b7 0bfb 37bd 351f
00000010: a9e2 2406 4f15 bc0b f840 7f46 0e49 39d9
00000020: 0502 09e9 1e19 f7f8 7411 19ec f8f8 04d6
00000030: 1adb 5ffc bafc 2621 f8d7 0714 f523 c0f3
00000040: 0cfa 411f 03ea 161b 0525 0820 39df 2f15
00000050: f32f 2320 c80a f844 1106 a8eb 140c 6a46
00000060: 1528 cff0 fed0 5eb4 c1d9 c0d1 fdd5 f6ca
00000070: e1e7 e0f0 f1a5 71de fd11 023d cc08 db10
00000080: e017 0e06 ea36 c654 1d0c 00d2 38c5 f823
00000090: acfe 3296 d72a 3f3c 2118 be0e d300 f2f0
000000a0: 211c 6708 d581 0804 1642 ea22 cae2 68e2
000000b0: 29f4 36c4 e4c2 ed0e ecd3 2000 44c6 de37
000000c0: 08ee 12f7 402c cb18 c82c 0fe6 22f8 141e
000000d0: 1de5 81f6 efd6 f416 01ef d410 dbed ee45
000000e0: f0db fd0f d419 e9ed 470d 0429 0637 05f9
000000f0: ac05 ee11 e830 0dc4 2317 2a21 e7f5 eb37

sequential/model/block_5_expand/Conv2D;StatefulPartitionedCall/sequential/model/block_5_expand/Conv2D i1 [96, 1, 1, 16]
-52 49 -12 -28 -30 -61 -66 -37
69 -53 40 -56 86 -120 14 -127
-104 66 -106 -112 -80 25 -12 60
-42 4 94 -52 48 127 23 46
-44 -10 -78 7 -10 -50 27 -41
-92 127 75 9 50 59 -46 114
-53 -73 8 -42 -86 10 -57 -127
-4 16 42 -76 -70 -41 -125 -47
74 2 -17 41 -64 -8 -127 39
20 70 17 52 4 3 -49 -85
-98 57 -89 -31 58 -59 -20 -84
98 -29 15 -42 21 -121 -127 -101
-9 -36 -35 24 -87 73 38 -42
-22 -55 127 -25 -5 -1 -118 10
-29 109 127 -84 60 83 -3 -60
40 64 -87 -16 52 3 25 75
-49 4 38 -7 56 10 96 127
-78 -23 -67 -84 43 91 -69 -62
38 48 103 28 -118 -44 -102 -119
71 13 127 30 -45 -104 57 -23
-12 -117 9 -78 -127 73 33 31
-31 -58 -3 39 -18 58 -126 26
119 -59 -12 95 -117 -35 58 -7
127 118 -51 45 26 -84 -16 114
-64 -64 127 -12 55 -19 23 56
65 -24 97 69 -29 16 -94 30
-4 -31 20 24 13 10 127 34
-103 12 9 12 -24 115 96 -71
126 -88 127 4 75 62 108 60
83 70 60 43 67 -49 38 -57
-4 123 10 -41 36 127 -76 67
-42 -23 -39 -12 -48 119 -24 -48
00000000: cc31 f4e4 e2c3 bedb 45cb 28c8 5688 0e81
00000010: 9842 9690 b019 f43c d604 5ecc 307f 172e
00000020: d4f6 b207 f6ce 1bd7 a47f 4b09 323b d272
00000030: cbb7 08d6 aa0a c781 fc10 2ab4 bad7 83d1
00000040: 4a02 ef29 c0f8 8127 1446 1134 0403 cfab
00000050: 9e39 a7e1 3ac5 ecac 62e3 0fd6 1587 819b
00000060: f7dc dd18 a949 26d6 eac9 7fe7 fbff 8a0a
00000070: e36d 7fac 3c53 fdc4 2840 a9f0 3403 194b
00000080: cf04 26f9 380a 607f b2e9 bdac 2b5b bbc2
00000090: 2630 671c 8ad4 9a89 470d 7f1e d398 39e9
000000a0: f48b 09b2 8149 211f e1c6 fd27 ee3a 821a
000000b0: 77c5 f45f 8bdd 3af9 7f76 cd2d 1aac f072
000000c0: c0c0 7ff4 37ed 1738 41e8 6145 e310 a21e
000000d0: fce1 1418 0d0a 7f22 990c 090c e873 60b9
000000e0: 7ea8 7f04 4b3e 6c3c 5346 3c2b 43cf 26c7
000000f0: fc7b 0ad7 247f b443 d6e9 d9f4 d077 e8d0

sequential/model/block_5_project/Conv2D;StatefulPartitionedCall/sequential/model/block_5_project/Conv2D i1 [16, 1, 1, 96]
-108 38 62 -27 -72 -8 -69 -2
-56 6 -13 -29 34 41 39 -39
15 0 93 13 9 -52 127 66
47 28 4 31 -65 -119 -93 4
-46 -48 28 19 8 24 -4 30
-8 -4 -83 5 -69 -26 -1 90
-21 14 -47 -17 -8 3 26 -55
-106 3 -11 82 54 27 -3 6
-32 -54 -45 25 -57 -65 11 -20
8 -3 -77 -48 -46 12 -37 7
-60 71 86 -73 10 52 9 50
31 -18 -7 -25 -35 -39 -59 11
35 17 26 -49 -63 -24 -11 11
-18 24 52 -55 4 -10 -64 -35
-9 -1 -66 27 -13 -77 8 49
-11 -68 -4 -48 66 -108 108 -77
54 23 -18 49 36 70 -11 -43
30 18 -3 -13 8 60 -127 -48
-54 -53 -16 -26 39 -49 -36 47
9 -1 -31 16 26 53 -9 -100
-15 -16 -59 -5 4 -17 -81 -10
-43 -23 16 -73 8 20 32 -70
-23 -27 -88 -30 34 -38 -23 19
-75 -12 -55 42 21 61 -53 53
84 -37 21 23 19 -78 66 3
-9 -10 -11 -12 -78 -29 10 -34
-95 -52 -39 46 6 -54 -47 30
-1 -69 9 -28 -32 47 -57 127
-53 125 -29 24 -12 -15 -16 -10
-102 80 75 18 -65 8 -20 -13
38 5 -33 -53 52 -20 -24 66
41 0 47 -4 10 45 -31 10
00000000: 9426 3ee5 b8f8 bbfe c806 f3e3 2229 27d9
00000010: 0f00 5d0d 09cc 7f42 2f1c 041f bf89 a304
00000020: d2d0 1c13 0818 fc1e f8fc ad05 bbe6 ff5a
00000030: eb0e d1ef f803 1ac9 9603 f552 361b fd06
00000040: e0ca d319 c7bf 0bec 08fd b3d0 d20c db07
00000050: c447 56b7 0a34 0932 1fee f9e7 ddd9 c50b
00000060: 2311 1acf c1e8 f50b ee18 34c9 04f6 c0dd
00000070: f7ff be1b f3b3 0831 f5bc fcd0 4294 6cb3
00000080: 3617 ee31 2446 f5d5 1e12 fdf3 083c 81d0
00000090: cacb f0e6 27cf dc2f 09ff e110 1a35 f79c
000000a0: f1f0 c5fb 04ef aff6 d5e9 10b7 0814 20ba
000000b0: e9e5 a8e2 22da e913 b5f4 c92a 153d cb35
000000c0: 54db 1517 13b2 4203 f7f6 f5f4 b2e3 0ade
000000d0: a1cc d92e 06ca d11e ffbb 09e4 e02f c77f
000000e0: cb7d e318 f4f1 f0f6 9a50 4b12 bf08 ecf3
000000f0: 2605 dfcb 34ec e842 2900 2ffc 0a2d e10a

sequential/model/block_6_expand/Conv2D;StatefulPartitionedCall/sequential/model/block_6_expand/Conv2D i1 [96, 1, 1, 16]
-10 97 -81 36 49 -30 98 69
-59 2 33 -91 82 127 -62 20
-20 0 -59 -25 -10 44 24 -127
30 -47 -22 -53 -10 -42 -54 5
-24 -27 33 76 23 44 -107 127
-23 3 77 -59 -19 -67 -44 69
90 -92 76 -6 -3 -32 -32 127
-29 58 68 50 -6 59 12 9
-40 -21 -10 50 -91 16 -31 -127
0 -10 34 -16 39 54 117 115
127 24 -25 -25 -83 21 28 72
14 -12 65 94 124 28 -89 5
18 -34 -59 -53 -72 7 -2 -47
-51 -52 -29 27 88 53 127 -9
-56 31 -29 -75 3 -58 -74 14
-96 53 -69 -64 -127 -37 15 87
53 43 73 8 55 23 71 9
67 -28 40 5 -127 -27 -78 12
-37 62 29 -45 -28 -14 29 -14
-31 49 -40 13 44 127 24 28
77 54 -46 54 -30 -17 53 -51
-76 -36 -59 -106 -127 -76 11 98
51 7 65 11 -12 -30 10 112
-91 25 -32 2 -13 -3 69 127
-50 -21 6 1 24 2 127 45
-63 26 5 -15 -7 86 -45 107
23 41 33 58 127 43 115 113
-46 108 -94 -71 37 100 -125 -30
-123 127 5 -14 -3 6 67 2
-43 33 122 -9 -98 26 -46 49
-13 -18 -127 -45 79 -44 -87 -36
-24 -21 -16 -66 -7 -82 -56 49
00000000: f661 af24 31e2 6245 c502 21a5 527f c214
00000010: ec00 c5e7 f62c 1881 1ed1 eacb f6d6 ca05
00000020: e8e5 214c 172c 957f e903 4dc5 edbd d445
00000030: 5aa4 4cfa fde0 e07f e33a 4432 fa3b 0c09
00000040: d8eb f632 a510 e181 00f6 22f0 2736 7573
00000050: 7f18 e7e7 ad15 1c48 0ef4 415e 7c1c a705
00000060: 12de c5cb b807 fed1 cdcc e31b 5835 7ff7
00000070: c81f e3b5 03c6 b60e a035 bbc0 81db 0f57
00000080: 352b 4908 3717 4709 43e4 2805 81e5 b20c
00000090: db3e 1dd3 e4f2 1df2 e131 d80d 2c7f 181c
000000a0: 4d36 d236 e2ef 35cd b4dc c596 81b4 0b62
000000b0: 3307 410b f4e2 0a70 a519 e002 f3fd 457f
000000c0: ceeb 0601 1802 7f2d c11a 05f1 f956 d36b
000000d0: 1729 213a 7f2b 7371 d26c a2b9 2564 83e2
000000e0: 857f 05f2 fd06 4302 d521 7af7 9e1a d231
000000f0: f3ee 81d3 4fd4 a9dc e8eb f0be f9ae c831

sequential/model/block_6_project/Conv2D;StatefulPartitionedCall/sequential/model/block_6_project/Conv2D i1 [24, 1, 1, 96]
-25 7 -127 17 -21 22 23 -59
-5 -25 12 -60 -17 11 -13 22
16 -15 -9 -34 0 -48 -15 4
-16 0 53 6 89 45 -8 -24
11 -3 -32 3 19 16 24 -19
-21 7 -51 -91 3 13 30 26
52 13 9 -30 14 49 -19 25
7 22 31 -28 26 7 46 8
26 32 -29 4 -32 -39 -16 24
-14 -22 17 -31 13 25 -7 -13
-46 22 42 15 12 -11 1 -7
-51 5 -35 -4 -1 -36 2 -16
-54 -5 32 -31 35 26 45 18
54 66 44 61 -37 -43 4 -23
30 -70 15 10 -93 -23 15 -5
-10 -43 -7 -28 -5 -52 -57 7
-66 -7 27 -89 -55 -26 -22 -19
-32 6 -1 -47 5 -35 20 50
65 5 11 -34 -12 -38 27 17
9 14 9 -32 -11 -19 5 -24
-10 -61 -17 31 -11 -8 -40 14
-61 55 24 -8 -12 2 1 -12
-45 -15 -22 11 32 -51 -18 51
17 26 -29 3 127 58 5 11
82 27 -2 68 -35 -44 31 27
59 90 -39 70 -61 2 -27 52
-79 92 63 47 -99 92 9 -9
43 -63 -5 59 -14 94 29 43
-66 12 -127 -1 -105 -13 0 -104
-31 32 -38 -85 15 12 90 7
-103 -35 12 63 -2 64 23 -71
-18 91 -48 -45 -29 46 3 11
00000000: e707 8111 eb16 17c5 fbe7 0cc4 ef0b f316
00000010: 10f1 f7de 00d0 f104 f000 3506 592d f8e8
00000020: 0bfd e003 1310 18ed eb07 cda5 030d 1e1a
00000030: 340d 09e2 0e31 ed19 0716 1fe4 1a07 2e08
00000040: 1a20 e304 e0d9 f018 f2ea 11e1 0d19 f9f3
00000050: d216 2a0f 0cf5 01f9 cd05 ddfc ffdc 02f0
00000060: cafb 20e1 231a 2d12 3642 2c3d dbd5 04e9
00000070: 1eba 0f0a a3e9 0ffb f6d5 f9e4 fbcc c707
00000080: bef9 1ba7 c9e6 eaed e006 ffd1 05dd 1432
00000090: 4105 0bde f4da 1b11 090e 09e0 f5ed 05e8
000000a0: f6c3 ef1f f5f8 d80e c337 18f8 f402 01f4
000000b0: d3f1 ea0b 20cd ee33 111a e303 7f3a 050b
000000c0: 521b fe44 ddd4 1f1b 3b5a d946 c302 e534
000000d0: b15c 3f2f 9d5c 09f7 2bc1 fb3b f25e 1d2b
000000e0: be0c 81ff 97f3 0098 e120 daab 0f0c 5a07
000000f0: 99dd 0c3f fe40 17b9 ee5b d0d3 e32e 030b

sequential/model/block_7_expand/Conv2D;StatefulPartitionedCall/sequential/model/block_7_expand/Conv2D i1 [144, 1, 1, 24]
89 -41 -27 37 -78 57 -63 -85
-9 39 -32 34 -27 -29 127 1
-57 10 6 63 90 -30 -16 3
-37 -97 -84 77 -31 127 49 10
100 -7 85 35 -37 -42 43 -16
3 -94 61 89 27 62 40 53
70 34 -21 36 17 -70 -27 14
-127 -3 7 67 22 -51 -11 3
-27 -23 22 72 -7 86 39 -31
-65 36 -36 -13 14 -6 -17 -54
-13 -110 1 2 38 -54 -69 81
-101 -115 -13 13 41 -32 127 -13
120 -15 38 78 0 -15 -17 -4
-58 52 -60 -3 9 -67 -61 -7
-37 37 -12 127 25 1 -37 -1
-54 -4 70 -107 32 -7 40 -16
-27 127 51 96 -10 -8 32 -111
89 43 0 -2 -45 63 -126 31
28 31 57 -54 -105 5 41 -47
117 -31 -38 31 -114 24 16 17
-15 -64 -13 13 -127 35 -54 16
26 5 35 87 -59 -85 -63 -105
-51 -18 -24 96 -18 30 -78 -56
11 -16 -80 127 74 62 2 -55
127 -80 67 71 -14 -65 -7 -46
-1 15 19 -14 -19 -123 -6 53
-98 12 -17 58 31 13 17 -72
-122 -82 -6 118 12 -4 -44 -43
-7 -107 106 14 -55 -117 32 127
-53 -90 -26 -47 -34 19 80 -50
-33 -60 -42 34 -114 127 58 -14
-37 -3 26 -9 28 -13 -89 -9
00000000: 59d7 e525 b239 c1ab f727 e022 e5e3 7f01
00000010: c70a 063f 5ae2 f003 db9f ac4d e17f 310a
00000020: 64f9 5523 dbd6 2bf0 03a2 3d59 1b3e 2835
00000030: 4622 eb24 11ba e50e 81fd 0743 16cd f503
00000040: e5e9 1648 f956 27e1 bf24 dcf3 0efa efca
00000050: f392 0102 26ca bb51 9b8d f30d 29e0 7ff3
00000060: 78f1 264e 00f1 effc c634 c4fd 09bd c3f9
00000070: db25 f47f 1901 dbff cafc 4695 20f9 28f0
00000080: e57f 3360 f6f8 2091 592b 00fe d33f 821f
00000090: 1c1f 39ca 9705 29d1 75e1 da1f 8e18 1011
000000a0: f1c0 f30d 8123 ca10 1a05 2357 c5ab c197
000000b0: cdee e860 ee1e b2c8 0bf0 b07f 4a3e 02c9
000000c0: 7fb0 4347 f2bf f9d2 ff0f 13f2 ed85 fa35
000000d0: 9e0c ef3a 1f0d 11b8 86ae fa76 0cfc d4d5
000000e0: f995 6a0e c98b 207f cba6 e6d1 de13 50ce
000000f0: dfc4 d622 8e7f 3af2 dbfd 1af7 1cf3 a7f7

sequential/model/block_7_project/Conv2D;StatefulPartitionedCall/sequential/model/block_7_project/Conv2D i1 [24, 1, 1, 144]
58 -3 -88 42 -127 2 13 59
-45 -50 -4 29 -10 16 -7 -41
46 14 -44 -13 -62 16 -11 46
44 30 -50 -8 -9 15 62 9
11 -10 -25 10 36 -45 51 5
-24 -49 4 5 -25 38 -33 4
-24 9 -44 1 37 14 1 23
-8 -6 -64 4 24 -55 -10 -8
-13 7 26 -17 -109 -52 -12 -16
-19 4 -9 21 -64 -33 -26 19
-22 6 -24 -3 -20 20 22 -1
-43 -83 -32 -13 14 12 33 50
-4 30 -1 -14 95 30 -12 -27
-14 -65 7 23 39 4 37 -3
-23 -14 -29 27 -2 14 49 -39
0 12 7 27 -27 -4 -56 -50
-10 3 -26 -24 2 -25 -11 -22
14 -57 6 -36 -38 -7 15 -53
17 -13 127 62 -4 98 -20 37
-14 -41 -51 -19 -18 0 8 -61
-18 -78 -4 -30 5 -13 -32 31
75 -14 120 10 42 17 -24 -20
3 -27 62 -55 39 -11 -48 36
37 91 -33 30 -22 -33 54 55
-39 -29 -26 28 -39 -2 97 5
-1 53 5 -19 8 -59 -59 44
53 16 45 77 -16 25 11 -11
7 0 27 45 5 28 3 31
25 -22 -54 52 64 -30 -84 -36
-38 -4 13 -13 19 -29 15 -3
5 -4 12 73 -21 -34 86 53
26 5 -37 42 24 5 -11 -52
00000000: 3afd a82a 8102 0d3b d3ce fc1d f610 f9d7
00000010: 2e0e d4f3 c210 f52e 2c1e cef8 f70f 3e09
00000020: 0bf6 e70a 24d3 3305 e8cf 0405 e726 df04
00000030: e809 d401 250e 0117 f8fa c004 18c9 f6f8
00000040: f307 1aef 93cc f4f0 ed04 f715 c0df e613
00000050: ea06 e8fd ec14 16ff d5ad e0f3 0e0c 2132
00000060: fc1e fff2 5f1e f4e5 f2bf 0717 2704 25fd
00000070: e9f2 e31b fe0e 31d9 000c 071b e5fc c8ce
00000080: f603 e6e8 02e7 f5ea 0ec7 06dc daf9 0fcb
00000090: 11f3 7f3e fc62 ec25 f2d7 cded ee00 08c3
000000a0: eeb2 fce2 05f3 e01f 4bf2 780a 2a11 e8ec
000000b0: 03e5 3ec9 27f5 d024 255b df1e eadf 3637
000000c0: d9e3 e61c d9fe 6105 ff35 05ed 08c5 c52c
000000d0: 3510 2d4d f019 0bf5 0700 1b2d 051c 031f
000000e0: 19ea ca34 40e2 acdc dafc 0df3 13e3 0ffd
000000f0: 05fc 0c49 ebde 5635 1a05 db2a 1805 f5cc

sequential/model/block_8_expand/Conv2D;StatefulPartitionedCall/sequential/model/block_8_expand/Conv2D i1 [144, 1, 1, 24]
-34 127 -102 64 20 -70 -36 -63
57 -72 3 15 5 67 32 -44
65 -53 32 -14 -10 62 -12 -3
-20 -51 7 19 -11 88 40 30
-18 0 -127 8 41 -5 80 -12
112 -6 53 -41 64 127 13 65
1 55 -35 58 13 -3 -24 51
-85 -15 5 17 52 12 -7 16
-25 -5 48 52 72 127 11 -15
-50 41 -127 -45 111 -89 52 59
-15 -65 -53 -59 20 13 -74 34
48 -16 13 2 54 70 66 -31
-13 -99 47 70 42 6 -32 83
-47 -31 55 -75 -19 4 -69 23
-48 -23 -127 -37 -36 -30 -45 -10
84 63 11 -124 6 6 18 -13
60 -22 -127 -1 -26 28 63 -52
25 125 -52 -33 -28 -33 66 -5
81 37 -127 -41 58 -46 55 20
-9 -40 -28 5 -33 -12 67 28
23 2 94 6 50 -40 41 -65
0 -87 127 41 46 -10 -94 40
-77 -5 -14 -2 44 -16 -8 26
88 68 -31 -22 26 -6 12 59
-39 -47 41 -16 27 -55 124 62
36 127 57 20 -1 48 58 -75
-25 45 -14 45 -9 23 -63 65
-4 -64 -4 17 12 -41 -21 54
-37 127 54 60 3 -62 -59 11
-43 -49 -1 32 13 -17 33 14
-25 -88 13 33 -53 49 -70 -45
39 11 -45 10 -70 34 -115 -47
00000000: de7f 9a40 14ba dcc1 39b8 030f 0543 20d4
00000010: 41cb 20f2 f63e f4fd eccd 0713 f558 281e
00000020: ee00 8108 29fb 50f4 70fa 35d7 407f 0d41
00000030: 0137 dd3a 0dfd e833 abf1 0511 340c f910
00000040: e7fb 3034 487f 0bf1 ce29 81d3 6fa7 343b
00000050: f1bf cbc5 140d b622 30f0 0d02 3646 42e1
00000060: f39d 2f46 2a06 e053 d1e1 37b5 ed04 bb17
00000070: d0e9 81db dce2 d3f6 543f 0b84 0606 12f3
00000080: 3cea 81ff e61c 3fcc 197d ccdf e4df 42fb
00000090: 5125 81d7 3ad2 3714 f7d8 e405 dff4 431c
000000a0: 1702 5e06 32d8 29bf 00a9 7f29 2ef6 a228
000000b0: b3fb f2fe 2cf0 f81a 5844 e1ea 1afa 0c3b
000000c0: d9d1 29f0 1bc9 7c3e 247f 3914 ff30 3ab5
000000d0: e72d f22d f717 c141 fcc0 fc11 0cd7 eb36
000000e0: db7f 363c 03c2 c50b d5cf ff20 0def 210e
000000f0: e7a8 0d21 cb31 bad3 270b d30a ba22 8dd1

sequential/model/block_8_project/Conv2D;StatefulPartitionedCall/sequential/model/block_8_project/Conv2D i1 [24, 1, 1, 144]
-41 -18 14 -24 -46 -25 49 -50
53 -42 -2 -13 71 113 13 -47
7 -42 -2 -53 -29 -3 6 68
-94 1 -18 74 -127 -119 -31 -69
43 -32 -37 44 10 31 24 -33
-28 2 24 -34 -31 -27 18 35
0 -77 79 -42 42 42 -43 -7
20 -97 -39 -54 -98 -2 -32 -28
86 -1 18 -10 48 -31 -37 47
-43 -11 -29 -11 -39 22 -75 26
14 85 14 7 -17 26 2 70
-44 -51 72 -40 -3 24 -9 30
-59 25 21 9 -10 9 78 -27
-33 -12 -4 -22 7 -34 21 -24
14 31 -12 11 -30 -51 -35 -14
60 28 39 -50 30 1 12 -1
-12 -50 31 -36 -27 -65 84 -31
3 114 44 -30 -19 -7 8 -12
90 -24 51 39 21 39 3 -11
-113 -30 17 42 9 -18 -36 -26
-36 1 -5 -50 -29 100 50 21
94 122 -17 12 -36 101 70 69
-59 9 50 15 -16 97 76 -40
-47 1 52 -79 97 -42 -42 42
0 -78 8 -29 -51 -58 3 8
-16 33 45 -23 27 15 11 -13
7 5 17 2 -25 28 -39 78
51 -16 -27 19 17 -5 -39 49
-58 -96 -39 3 7 -127 -14 58
116 -6 92 7 6 -46 0 63
-47 -37 -57 -23 0 -9 -16 -22
1 38 26 9 22 37 -23 28
00000000: d7ee 0ee8 d2e7 31ce 35d6 fef3 4771 0dd1
00000010: 07d6 fecb e3fd 0644 a201 ee4a 8189 e1bb
00000020: 2be0 db2c 0a1f 18df e402 18de e1e5 1223
00000030: 00b3 4fd6 2a2a d5f9 149f d9ca 9efe e0e4
00000040: 56ff 12f6 30e1 db2f d5f5 e3f5 d916 b51a
00000050: 0e55 0e07 ef1a 0246 d4cd 48d8 fd18 f71e
00000060: c519 1509 f609 4ee5 dff4 fcea 07de 15e8
00000070: 0e1f f40b e2cd ddf2 3c1c 27ce 1e01 0cff
00000080: f4ce 1fdc e5bf 54e1 0372 2ce2 edf9 08f4
00000090: 5ae8 3327 1527 03f5 8fe2 112a 09ee dce6
000000a0: dc01 fbce e364 3215 5e7a ef0c dc65 4645
000000b0: c509 320f f061 4cd8 d101 34b1 61d6 d62a
000000c0: 00b2 08e3 cdc6 0308 f021 2de9 1b0f 0bf3
000000d0: 0705 1102 e71c d94e 33f0 e513 11fb d931
000000e0: c6a0 d903 0781 f23a 74fa 5c07 06d2 003f
000000f0: d1db c7e9 00f7 f0ea 0126 1a09 1625 e91c

sequential/model/block_9_expand/Conv2D;StatefulPartitionedCall/sequential/model/block_9_expand/Conv2D i1 [144, 1, 1, 24]
107 51 -49 -51 -94 -14 0 10
15 -17 18 -127 29 -18 -87 -20
32 -56 1 115 -7 -31 -66 40
-10 55 -71 -70 -35 -29 55 -9
14 -60 52 90 114 25 -35 34
-10 -22 127 -65 -64 7 75 -40
-111 -16 -2 -104 -21 51 74 -50
26 -115 127 3 -3 69 -22 -21
45 -47 -16 -119 -90 21 25 60
-6 1 -19 43 -30 93 70 52
-8 115 -15 51 43 -51 55 -40
-17 -80 55 33 10 127 36 -32
21 -102 127 -5 -35 9 -16 45
-86 -41 -10 -14 73 75 75 -46
59 39 -107 -85 -42 37 -65 -27
-42 82 -72 -49 -71 118 -5 53
27 -17 -67 8 66 -26 127 -117
94 -33 16 -16 -37 -35 -53 10
57 -127 -112 -50 71 -69 -31 -56
-7 104 -8 -48 15 90 -33 -104
-54 -1 72 -10 -34 -59 54 83
72 -69 36 8 49 1 -73 -69
-66 13 61 -120 -56 127 -36 28
-1 1 -113 34 14 52 34 9
34 -42 -7 4 27 25 78 -62
-24 41 28 -23 -43 58 -42 19
-60 5 -101 -74 -127 19 12 27
42 -60 28 -27 -11 -29 -1 -12
1 52 16 -49 -52 -127 9 75
-49 4 22 66 -5 -41 67 68
-52 6 -60 66 -46 127 70 -25
-43 52 70 20 70 -65 -17 89
00000000: 6b33 cfcd a2f2 000a 0fef 1281 1dee a9ec
00000010: 20c8 0173 f9e1 be28 f637 b9ba dde3 37f7
00000020: 0ec4 345a 7219 dd22 f6ea 7fbf c007 4bd8
00000030: 91f0 fe98 eb33 4ace 1a8d 7f03 fd45 eaeb
00000040: 2dd1 f089 a615 193c fa01 ed2b e25d 4634
00000050: f873 f133 2bcd 37d8 efb0 3721 0a7f 24e0
00000060: 159a 7ffb dd09 f02d aad7 f6f2 494b 4bd2
00000070: 3b27 95ab d625 bfe5 d652 b8cf b976 fb35
00000080: 1bef bd08 42e6 7f8b 5edf 10f0 dbdd cb0a
00000090: 3981 90ce 47bb e1c8 f968 f8d0 0f5a df98
000000a0: caff 48f6 dec5 3653 48bb 2408 3101 b7bb
000000b0: be0d 3d88 c87f dc1c ff01 8f22 0e34 2209
000000c0: 22d6 f904 1b19 4ec2 e829 1ce9 d53a d613
000000d0: c405 9bb6 8113 0c1b 2ac4 1ce5 f5e3 fff4
000000e0: 0134 10cf cc81 094b cf04 1642 fbd7 4344
000000f0: cc06 c442 d27f 46e7 d534 4614 46bf ef59

sequential/model/block_9_project/Conv2D;StatefulPartitionedCall/sequential/model/block_9_project/Conv2D i1 [24, 1, 1, 144]
-3 -96 104 78 122 -8 125 -69
-16 -36 4 0 122 17 106 -35
-46 27 92 -64 -13 55 51 -67
-16 29 67 -47 64 -37 127 -27
-8 60 6 -65 -8 81 -7 33
100 5 35 14 16 -113 -20 42
-2 47 108 102 98 -27 81 -37
-13 4 -58 14 33 -10 52 -16
-7 66 42 -44 5 13 78 -9
-33 23 29 -96 -8 31 83 12
-46 -44 30 -48 -10 -20 1 -36
58 -65 -19 75 39 45 45 11
101 26 -19 68 -6 45 -61 9
49 23 35 24 -46 -43 22 -6
4 16 -45 -30 -14 -44 -51 28
24 -56 47 3 21 34 7 0
5 -3 -44 -8 -36 20 -57 51
-24 -8 -45 -86 0 57 -17 30
-36 7 21 15 -66 24 6 13
3 -55 16 44 -24 -23 11 2
44 -65 -22 83 30 8 61 -78
-7 9 -67 4 -49 -11 47 58
-29 12 50 -21 -5 -9 4 67
-10 45 20 14 -81 10 -30 0
75 -45 -45 35 8 1 -44 0
-18 24 6 -24 39 -27 45 20
-75 -21 -4 62 -127 63 25 -68
46 -29 31 59 5 -32 -36 -25
84 -64 -14 -43 -39 -71 23 -1
54 -16 -12 -11 -18 52 6 -13
-51 -26 6 -5 0 -6 61 75
-69 -10 42 -57 -45 17 -25 5
00000000: fda0 684e 7af8 7dbb f0dc 0400 7a11 6add
00000010: d21b 5cc0 f337 33bd f01d 43d1 40db 7fe5
00000020: f83c 06bf f851 f921 6405 230e 108f ec2a
00000030: fe2f 6c66 62e5 51db f304 c60e 21f6 34f0
00000040: f942 2ad4 050d 4ef7 df17 1da0 f81f 530c
00000050: d2d4 1ed0 f6ec 01dc 3abf ed4b 272d 2d0b
00000060: 651a ed44 fa2d c309 3117 2318 d2d5 16fa
00000070: 0410 d3e2 f2d4 cd1c 18c8 2f03 1522 0700
00000080: 05fd d4f8 dc14 c733 e8f8 d3aa 0039 ef1e
00000090: dc07 150f be18 060d 03c9 102c e8e9 0b02
000000a0: 2cbf ea53 1e08 3db2 f909 bd04 cff5 2f3a
000000b0: e30c 32eb fbf7 0443 f62d 140e af0a e200
000000c0: 4bd3 d323 0801 d400 ee18 06e8 27e5 2d14
000000d0: b5eb fc3e 813f 19bc 2ee3 1f3b 05e0 dce7
000000e0: 54c0 f2d5 d9b9 17ff 36f0 f4f5 ee34 06f3
000000f0: cde6 06fb 00fa 3d4b bbf6 2ac7 d311 e705

sequential/model/block_10_expand/Conv2D;StatefulPartitionedCall/sequential/model/block_10_expand/Conv2D i1 [144, 1, 1, 24]
0 -22 28 -78 68 95 -59 -8
50 24 -116 2 6 90 16 31
53 127 22 68 -21 -29 2 74
14 76 64 98 -14 -96 -75 58
-2 -23 -120 127 101 1 25 -121
-37 80 -48 3 6 42 -63 -76
35 127 84 52 -6 -53 67 32
-2 -27 -79 18 -30 -43 -18 -48
16 18 -73 -60 40 -84 -24 -23
13 -72 -33 127 -8 14 46 125
55 24 14 -1 -59 -86 31 87
-21 -110 1 -12 4 39 112 -11
-127 26 19 17 32 -46 26 -96
20 -16 26 94 36 -81 -79 76
-53 20 -8 4 92 -7 -46 -60
19 57 -59 -30 -59 -50 -27 -5
71 -67 -33 6 -37 31 103 -23
-64 88 12 77 -116 10 -8 -127
71 108 10 -40 88 -2 31 109
1 60 -37 -51 100 -101 127 -11
-61 -36 39 -48 42 -41 -37 79
64 -21 68 -10 21 -104 24 -47
-6 -19 21 -60 0 -22 73 40
-127 27 45 54 -81 -45 26 49
1 51 88 -16 83 -105 -60 -63
-107 -75 -11 37 -80 -20 116 84
104 83 53 127 -15 -43 86 -52
-89 12 28 -127 86 -24 14 -3
17 36 54 3 61 -45 -4 117
5 -46 119 27 -25 22 -75 54
81 11 -40 -16 10 -23 -41 47
6 57 -41 10 2 -107 -127 97
00000000: 00ea 1cb2 445f c5f8 3218 8c02 065a 101f
00000010: 357f 1644 ebe3 024a 0e4c 4062 f2a0 b53a
00000020: fee9 887f 6501 1987 db50 d003 062a c1b4
00000030: 237f 5434 facb 4320 fee5 b112 e2d5 eed0
00000040: 1012 b7c4 28ac e8e9 0db8 df7f f80e 2e7d
00000050: 3718 0eff c5aa 1f57 eb92 01f4 0427 70f5
00000060: 811a 1311 20d2 1aa0 14f0 1a5e 24af b14c
00000070: cb14 f804 5cf9 d2c4 1339 c5e2 c5ce e5fb
00000080: 47bd df06 db1f 67e9 c058 0c4d 8c0a f881
00000090: 476c 0ad8 58fe 1f6d 013c dbcd 649b 7ff5
000000a0: c3dc 27d0 2ad7 db4f 40eb 44f6 1598 18d1
000000b0: faed 15c4 00ea 4928 811b 2d36 afd3 1a31
000000c0: 0133 58f0 5397 c4c1 95b5 f525 b0ec 7454
000000d0: 6853 357f f1d5 56cc a70c 1c81 56e8 0efd
000000e0: 1124 3603 3dd3 fc75 05d2 771b e716 b536
000000f0: 510b d8f0 0ae9 d72f 0639 d70a 0295 8161

sequential/model/block_10_project/Conv2D;StatefulPartitionedCall/sequential/model/block_10_project/Conv2D i1 [32, 1, 1, 144]
2 25 35 -8 40 -6 19 59
11 17 -41 -20 -44 59 10 17
-83 -57 86 -8 63 20 -17 2
38 -3 12 127 -51 22 35 -67
-10 -1 -26 78 4 -60 -43 26
11 -46 -25 -17 113 -49 -42 6
9 97 95 33 -94 -5 -52 -71
25 -30 7 -20 -27 65 5 -29
51 -98 -32 -11 -71 99 -24 117
52 126 -10 23 43 -23 -1 2
-1 -13 23 -92 -19 3 21 -54
73 -25 75 46 77 -59 -47 38
-74 25 -8 45 13 37 5 7
-43 -55 24 -1 -5 -8 -42 -64
-64 -16 -108 -56 101 54 -10 -72
45 -69 4 39 24 -5 6 -1
-4 18 -34 -35 -11 3 85 -27
27 -5 -45 63 2 52 20 -14
-37 4 -4 4 14 17 47 -59
30 -14 56 4 -62 -34 -50 -19
-33 -98 -47 106 26 -47 -36 9
-21 -30 58 -24 -75 -2 -26 -4
-50 -127 -25 -24 45 76 4 57
-21 4 8 117 -15 25 -116 -5
69 -35 62 -14 0 -26 13 15
10 30 -64 16 -35 -48 35 51
11 -47 56 -33 67 73 44 -2
59 4 29 -13 -71 68 -3 9
-3 27 -69 -19 -24 -46 63 -74
-88 -13 -9 69 -19 0 69 -24
-91 48 38 -40 -15 -19 -22 -17
18 -26 -30 8 46 24 34 -56
00000000: 0219 23f8 28fa 133b 0b11 d7ec d43b 0a11
00000010: adc7 56f8 3f14 ef02 26fd 0c7f cd16 23bd
00000020: f6ff e64e 04c4 d51a 0bd2 e7ef 71cf d606
00000030: 0961 5f21 a2fb ccb9 19e2 07ec e541 05e3
00000040: 339e e0f5 b963 e875 347e f617 2be9 ff02
00000050: fff3 17a4 ed03 15ca 49e7 4b2e 4dc5 d126
00000060: b619 f82d 0d25 0507 d5c9 18ff fbf8 d6c0
00000070: c0f0 94c8 6536 f6b8 2dbb 0427 18fb 06ff
00000080: fc12 dedd f503 55e5 1bfb d33f 0234 14f2
00000090: db04 fc04 0e11 2fc5 1ef2 3804 c2de ceed
000000a0: df9e d16a 1ad1 dc09 ebe2 3ae8 b5fe e6fc
000000b0: ce81 e7e8 2d4c 0439 eb04 0875 f119 8cfb
000000c0: 45dd 3ef2 00e6 0d0f 0a1e c010 ddd0 2333
000000d0: 0bd1 38df 4349 2cfe 3b04 1df3 b944 fd09
000000e0: fd1b bbed e8d2 3fb6 a8f3 f745 ed00 45e8
000000f0: a530 26d8 f1ed eaef 12e6 e208 2e18 22c8

sequential/model/block_11_expand/Conv2D;StatefulPartitionedCall/sequential/model/block_11_expand/Conv2D i1 [192, 1, 1, 32]
127 58 -34 22 -6 -39 -7 -122
-96 50 52 -62 37 20 -1 22
-4 7 -30 -36 -46 -91 -14 -72
-108 8 -40 87 92 -47 42 7
-86 21 -43 -43 33 96 36 -21
21 61 -11 -2 -94 -48 -35 -109
-127 -88 20 11 -16 33 -79 33
-97 62 -105 -9 30 -16 7 -53
-127 -11 13 56 35 14 -42 -37
41 42 -44 9 25 13 66 -88
32 93 -88 -2 -44 -36 -103 -1
38 -51 34 -57 -16 44 -58 -41
11 42 -22 -117 -35 -2 59 -35
-84 -59 -82 -7 32 -19 81 127
10 -48 -29 -64 -38 -90 70 88
25 -50 69 5 34 -4 10 50
-10 13 -40 -18 -5 102 -92 6
-10 7 -21 3 16 66 17 2
33 -35 -30 -127 -5 -97 11 -81
-16 94 25 -49 -62 32 24 -39
127 -37 60 119 102 32 -54 -57
35 -45 30 80 -80 -103 -43 -35
7 -4 67 27 49 -7 -4 -77
-55 16 57 -6 9 -27 52 -36
10 15 66 -48 -19 45 -23 6
-127 80 -70 38 10 -16 14 38
33 -8 12 40 -96 14 2 26
-28 -24 16 -13 120 52 -47 -26
-27 -65 70 -41 21 -42 -29 26
28 -79 36 1 -20 -71 -83 -40
-24 -12 -11 12 -71 32 21 106
46 127 -19 -73 -50 2 -36 75
00000000: 7f3a de16 fad9 f986 a032 34c2 2514 ff16
00000010: fc07 e2dc d2a5 f2b8 9408 d857 5cd1 2a07
00000020: aa15 d5d5 2160 24eb 153d f5fe a2d0 dd93
00000030: 81a8 140b f021 b121 9f3e 97f7 1ef0 07cb
00000040: 81f5 0d38 230e d6db 292a d409 190d 42a8
00000050: 205d a8fe d4dc 99ff 26cd 22c7 f02c c6d7
00000060: 0b2a ea8b ddfe 3bdd acc5 aef9 20ed 517f
00000070: 0ad0 e3c0 daa6 4658 19ce 4505 22fc 0a32
00000080: f60d d8ee fb66 a406 f607 eb03 1042 1102
00000090: 21dd e281 fb9f 0baf f05e 19cf c220 18d9
000000a0: 7fdb 3c77 6620 cac7 23d3 1e50 b099 d5dd
000000b0: 07fc 431b 31f9 fcb3 c910 39fa 09e5 34dc
000000c0: 0a0f 42d0 ed2d e906 8150 ba26 0af0 0e26
000000d0: 21f8 0c28 a00e 021a e4e8 10f3 7834 d1e6
000000e0: e5bf 46d7 15d6 e31a 1cb1 2401 ecb9 add8
000000f0: e8f4 f50c b920 156a 2e7f edb7 ce02 dc4b

sequential/model/block_11_project/Conv2D;StatefulPartitionedCall/sequential/model/block_11_project/Conv2D i1 [32, 1, 1, 192]
-86 -9 -13 4 -45 -1 34 23
-24 -85 33 -26 65 14 -6 51
-127 -13 2 -30 -59 -4 9 7
-24 10 74 41 30 -7 -56 1
6 -26 -58 7 -42 34 -4 127
-11 -51 7 -5 -18 5 -57 -47
2 -57 33 85 80 76 34 -5
11 -4 19 -34 -30 52 34 -32
-2 81 23 50 -19 29 13 31
16 -66 9 -27 60 -14 36 -26
-40 12 1 14 41 83 -55 7
70 -26 -31 -31 70 1 -43 -16
44 -30 2 -5 8 2 95 45
11 11 -24 -50 -59 55 44 -22
-10 -28 -9 5 9 -20 31 -8
5 -59 53 41 -4 11 5 44
-16 27 -8 -41 32 -22 75 -41
100 -45 -51 36 28 31 -25 -9
-38 -75 -71 48 10 -54 41 -37
25 18 -2 -34 -96 35 -21 -3
-23 -2 -24 27 -14 -83 27 -33
-7 -16 -6 -49 49 -19 13 64
63 3 74 -12 32 -73 64 11
23 -25 51 32 -44 54 23 15
-13 19 -6 -8 4 63 20 -73
-18 -92 6 -63 -70 23 -44 -10
-66 59 24 29 22 22 31 27
30 2 22 -65 -8 34 24 38
-67 -88 83 13 29 7 13 1
-73 -24 83 24 18 -1 41 -52
-48 70 -45 -6 -52 -22 43 -8
-18 47 28 -11 -30 84 -69 48
00000000: aaf7 f304 d3ff 2217 e8ab 21e6 410e fa33
00000010: 81f3 02e2 c5fc 0907 e80a 4a29 1ef9 c801
00000020: 06e6 c607 d622 fc7f f5cd 07fb ee05 c7d1
00000030: 02c7 2155 504c 22fb 0bfc 13de e234 22e0
00000040: fe51 1732 ed1d 0d1f 10be 09e5 3cf2 24e6
00000050: d80c 010e 2953 c907 46e6 e1e1 4601 d5f0
00000060: 2ce2 02fb 0802 5f2d 0b0b e8ce c537 2cea
00000070: f6e4 f705 09ec 1ff8 05c5 3529 fc0b 052c
00000080: f01b f8d7 20ea 4bd7 64d3 cd24 1c1f e7f7
00000090: dab5 b930 0aca 29db 1912 fede a023 ebfd
000000a0: e9fe e81b f2ad 1bdf f9f0 facf 31ed 0d40
000000b0: 3f03 4af4 20b7 400b 17e7 3320 d436 170f
000000c0: f313 faf8 043f 14b7 eea4 06c1 ba17 d4f6
000000d0: be3b 181d 1616 1f1b 1e02 16bf f822 1826
000000e0: bda8 530d 1d07 0d01 b7e8 5318 12ff 29cc
000000f0: d046 d3fa ccea 2bf8 ee2f 1cf5 e254 bb30

sequential/model/block_12_expand/Conv2D;StatefulPartitionedCall/sequential/model/block_12_expand/Conv2D i1 [192, 1, 1, 32]
-43 59 127 -12 -25 109 -34 26
94 -33 30 20 46 80 37 21
11 -72 12 -46 -58 -82 -41 -43
-6 -14 -13 -95 -40 28 -2 -6
-53 53 -20 76 31 7 23 62
-17 -23 -2 32 103 16 20 -54
2 127 -77 -44 -40 27 -94 -25
-8 -122 86 15 36 -76 25 -69
-119 70 -26 20 74 -81 70 -115
-58 62 -48 16 80 20 8 105
-11 -103 8 86 88 -45 75 -31
86 75 -59 -108 -111 127 29 -95
64 31 -9 30 41 -31 -79 57
93 -1 55 12 3 -13 -66 25
-15 -19 74 127 35 89 28 -41
21 18 92 79 19 -62 -63 -100
13 -74 84 -98 -27 14 67 75
17 -45 -31 -31 -127 -4 29 -89
10 4 17 25 35 69 59 -15
-27 -43 9 114 25 107 -17 32
93 -1 18 6 -35 -112 84 -18
-2 69 35 -20 -39 -44 59 37
-2 97 24 22 37 -28 33 -30
31 -71 51 -127 2 -15 -48 8
98 2 50 -3 -59 -127 86 -27
16 63 -50 38 10 53 -4 -79
39 -76 17 -9 -37 -11 -109 -6
-52 120 -41 -63 -7 -64 15 -12
19 -4 19 -24 87 46 18 33
-37 73 -23 -15 45 -10 9 10
5 15 -43 -29 23 6 79 33
21 -66 2 127 -5 -38 -10 20
00000000: d53b 7ff4 e76d de1a 5edf 1e14 2e50 2515
00000010: 0bb8 0cd2 c6ae d7d5 faf2 f3a1 d81c fefa
00000020: cb35 ec4c 1f07 173e efe9 fe20 6710 14ca
00000030: 027f b3d4 d81b a2e7 f886 560f 24b4 19bb
00000040: 8946 e614 4aaf 468d c63e d010 5014 0869
00000050: f599 0856 58d3 4be1 564b c594 917f 1da1
00000060: 401f f71e 29e1 b139 5dff 370c 03f3 be19
00000070: f1ed 4a7f 2359 1cd7 1512 5c4f 13c2 c19c
00000080: 0db6 549e e50e 434b 11d3 e1e1 81fc 1da7
00000090: 0a04 1119 2345 3bf1 e5d5 0972 196b ef20
000000a0: 5dff 1206 dd90 54ee fe45 23ec d9d4 3b25
000000b0: fe61 1816 25e4 21e2 1fb9 3381 02f1 d008
000000c0: 6202 32fd c581 56e5 103f ce26 0a35 fcb1
000000d0: 27b4 11f7 dbf5 93fa cc78 d7c1 f9c0 0ff4
000000e0: 13fc 13e8 572e 1221 db49 e9f1 2df6 090a
000000f0: 050f d5e3 1706 4f21 15be 027f fbda f614

sequential/model/block_12_project/Conv2D;StatefulPartitionedCall/sequential/model/block_12_project/Conv2D i1 [32, 1, 1, 192]
-4 20 53 49 24 -55 -66 13
-6 0 -26 93 -99 29 55 55
-24 43 -6 -92 14 18 -34 -35
0 -11 -64 30 16 20 18 4
-1 30 75 73 -9 74 31 1
2 -8 21 18 4 -66 27 39
77 1 16 -9 55 12 -11 18
-28 6 52 -34 8 39 -46 27
6 69 70 -28 40 5 2 -66
-74 91 -19 47 -25 45 19 55
54 -3 30 -10 9 -84 -14 55
-36 -49 -59 31 16 -2 32 45
19 -44 -3 13 -14 -19 5 41
-22 -17 12 52 39 -42 -13 11
-23 -21 7 54 28 -1 -79 48
-14 -7 67 6 -2 -37 -3 61
-31 26 -49 -112 15 28 -1 9
-40 -27 -34 37 -46 -23 -16 -37
-17 -59 6 -34 18 -19 16 -54
40 34 6 -51 -28 76 -7 -32
-14 -17 43 -13 1 37 48 -21
6 27 -55 16 45 21 -127 3
-26 -43 -39 -14 31 -22 47 1
-58 23 -4 25 -43 15 13 -29
53 -58 -34 -83 -52 -18 4 -2
33 -46 -32 6 19 -9 -9 -23
-12 -80 -11 84 11 56 12 -17
-8 78 3 -25 56 10 27 70
37 -15 -9 -37 -37 -38 -33 32
9 -84 1 33 17 -14 33 61
42 -45 -37 39 -23 30 -85 -9
4 -18 -2 57 -39 51 40 -30
00000000: fc14 3531 18c9 be0d fa00 e65d 9d1d 3737
00000010: e82b faa4 0e12 dedd 00f5 c01e 1014 1204
00000020: ff1e 4b49 f74a 1f01 02f8 1512 04be 1b27
00000030: 4d01 10f7 370c f512 e406 34de 0827 d21b
00000040: 0645 46e4 2805 02be b65b ed2f e72d 1337
00000050: 36fd 1ef6 09ac f237 dccf c51f 10fe 202d
00000060: 13d4 fd0d f2ed 0529 eaef 0c34 27d6 f30b
00000070: e9eb 0736 1cff b130 f2f9 4306 fedb fd3d
00000080: e11a cf90 0f1c ff09 d8e5 de25 d2e9 f0db
00000090: efc5 06de 12ed 10ca 2822 06cd e44c f9e0
000000a0: f2ef 2bf3 0125 30eb 061b c910 2d15 8103
000000b0: e6d5 d9f2 1fea 2f01 c617 fc19 d50f 0de3
000000c0: 35c6 dead ccee 04fe 21d2 e006 13f7 f7e9
000000d0: f4b0 f554 0b38 0cef f84e 03e7 380a 1b46
000000e0: 25f1 f7db dbda df20 09ac 0121 11f2 213d
000000f0: 2ad3 db27 e91e abf7 04ee fe39 d933 28e2
